…
To enable them in other operations, rebuild TensorFlow with the appropriate compiler flags.
2021-05-17 23:55:36.192877: I tensorflow/core/common_runtime/gpu/gpu_device.cc:1258] Device interconnect StreamExecutor with strength 1 edge matrix:
2021-05-17 23:55:36.192929: I tensorflow/core/common_runtime/gpu/gpu_device.cc:1264]      
500
1000
1500
2000
2500
3000
3500
4000
4500
5000
5500
6000
(63920, 227, 227, 3) (227, 227, 3)
(63920, 11)
Model: "sequential"
_________________________________________________________________
Layer (type)                 Output Shape              Param #   
=================================================================
conv2d (Conv2D)              (None, 227, 227, 16)      2368      
_________________________________________________________________
batch_normalization (BatchNo (None, 227, 227, 16)      64        
_________________________________________________________________
max_pooling2d (MaxPooling2D) (None, 113, 113, 16)      0         
_________________________________________________________________
conv2d_1 (Conv2D)            (None, 113, 113, 16)      12560     
_________________________________________________________________
batch_normalization_1 (Batch (None, 113, 113, 16)      64        
_________________________________________________________________
max_pooling2d_1 (MaxPooling2 (None, 56, 56, 16)        0         
_________________________________________________________________
conv2d_2 (Conv2D)            (None, 56, 56, 32)        12832     
_________________________________________________________________
batch_normalization_2 (Batch (None, 56, 56, 32)        128       
_________________________________________________________________
max_pooling2d_2 (MaxPooling2 (None, 28, 28, 32)        0         
_________________________________________________________________
conv2d_3 (Conv2D)            (None, 28, 28, 64)        51264     
_________________________________________________________________
batch_normalization_3 (Batch (None, 28, 28, 64)        256       
_________________________________________________________________
max_pooling2d_3 (MaxPooling2 (None, 14, 14, 64)        0         
_________________________________________________________________
conv2d_4 (Conv2D)            (None, 14, 14, 128)       73856     
_________________________________________________________________
batch_normalization_4 (Batch (None, 14, 14, 128)       512       
_________________________________________________________________
max_pooling2d_4 (MaxPooling2 (None, 7, 7, 128)         0         
_________________________________________________________________
conv2d_5 (Conv2D)            (None, 7, 7, 256)         295168    
_________________________________________________________________
batch_normalization_5 (Batch (None, 7, 7, 256)         1024      
_________________________________________________________________
max_pooling2d_5 (MaxPooling2 (None, 2, 2, 256)         0         
_________________________________________________________________
average_pooling2d (AveragePo (None, 1, 1, 256)         0         
_________________________________________________________________
flatten (Flatten)            (None, 256)               0         
_________________________________________________________________
dense (Dense)                (None, 128)               32896     
_________________________________________________________________
dropout (Dropout)            (None, 128)               0         
_________________________________________________________________
dense_1 (Dense)              (None, 32)                4128      
_________________________________________________________________
dropout_1 (Dropout)          (None, 32)                0         
_________________________________________________________________
dense_2 (Dense)              (None, 11)                363       
=================================================================
Total params: 487,483
Trainable params: 486,459
Non-trainable params: 1,024
_________________________________________________________________
None
-TRAINING----------------------------
Traceback (most recent call last):
  File "train.py", line 85, in <module>
    x_train, x_valid, y_train, y_valid = train_test_split(X, Y, train_size=0.8,test_size=0.2, shuffle= True)
…
