…
2021-05-18 12:22:03.682080: I tensorflow/compiler/mlir/mlir_graph_optimization_pass.cc:176] None of the MLIR Optimization Passes are enabled (registered 2)
2021-05-18 12:22:03.682779: I tensorflow/core/platform/profile_utils/cpu_utils.cc:114] CPU Frequency: 2199950000 Hz
500
1000
1500
2000
2500
3000
3500
4000
4500
5000
5500
6000
(63920, 227, 227, 1) (227, 227, 1)
(63920, 11)
Model: "sequential"
_________________________________________________________________
Layer (type)                 Output Shape              Param #   
=================================================================
conv2d (Conv2D)              (None, 227, 227, 16)      800       
_________________________________________________________________
batch_normalization (BatchNo (None, 227, 227, 16)      64        
_________________________________________________________________
max_pooling2d (MaxPooling2D) (None, 113, 113, 16)      0         
_________________________________________________________________
conv2d_1 (Conv2D)            (None, 113, 113, 16)      12560     
_________________________________________________________________
batch_normalization_1 (Batch (None, 113, 113, 16)      64        
_________________________________________________________________
max_pooling2d_1 (MaxPooling2 (None, 56, 56, 16)        0         
_________________________________________________________________
conv2d_2 (Conv2D)            (None, 56, 56, 32)        12832     
_________________________________________________________________
batch_normalization_2 (Batch (None, 56, 56, 32)        128       
_________________________________________________________________
max_pooling2d_2 (MaxPooling2 (None, 28, 28, 32)        0         
_________________________________________________________________
conv2d_3 (Conv2D)            (None, 28, 28, 64)        51264     
_________________________________________________________________
batch_normalization_3 (Batch (None, 28, 28, 64)        256       
_________________________________________________________________
max_pooling2d_3 (MaxPooling2 (None, 14, 14, 64)        0         
_________________________________________________________________
conv2d_4 (Conv2D)            (None, 14, 14, 128)       73856     
_________________________________________________________________
batch_normalization_4 (Batch (None, 14, 14, 128)       512       
_________________________________________________________________
max_pooling2d_4 (MaxPooling2 (None, 7, 7, 128)         0         
_________________________________________________________________
conv2d_5 (Conv2D)            (None, 7, 7, 256)         295168    
_________________________________________________________________
batch_normalization_5 (Batch (None, 7, 7, 256)         1024      
_________________________________________________________________
max_pooling2d_5 (MaxPooling2 (None, 2, 2, 256)         0         
_________________________________________________________________
average_pooling2d (AveragePo (None, 1, 1, 256)         0         
_________________________________________________________________
flatten (Flatten)            (None, 256)               0         
_________________________________________________________________
dense (Dense)                (None, 128)               32896     
_________________________________________________________________
dropout (Dropout)            (None, 128)               0         
_________________________________________________________________
dense_1 (Dense)              (None, 32)                4128      
_________________________________________________________________
dropout_1 (Dropout)          (None, 32)                0         
_________________________________________________________________
dense_2 (Dense)              (None, 11)                363       
=================================================================
Total params: 485,915
Trainable params: 484,891
Non-trainable params: 1,024
_________________________________________________________________
None
-TRAINING----------------------------
Epoch 1/20
  1/100 [..............................] - ETA: 24:04 - loss: 6.9534 - accuracy: 0.0762
…
